logistic_regression_model.ckpt (torch, 33461 bytes, 2 tensors)

weight f4 [10, 784]
0	0xbcb4e58a	-0.022082109
1	0xbb830280	-0.0039981008
2	0xbd074c1a	-0.03303156
3	0xbce04fbc	-0.02738177
4	0x3cfbb72e	0.030726995
5	0x3c252574	0.01007973
6	0xbca62868	-0.02028294
7	0x3c92201a	0.017837573
8	0x3c638ba0	0.01388827
9	0xbd092bee	-0.03348916
10	0x3cb3eebe	0.021964427
11	0xba9e2320	-0.0012064911
12	0x3cafd127	0.021462036
13	0x3b8d9c56	0.004321615
14	0x3c9bca9a	0.019017506
15	0xbbc9ec93	-0.006162235
16	0xbba54030	-0.005043052
17	0xbc30aca0	-0.0107833445
18	0xbcdae6ee	-0.026721444
19	0x3cca00b6	0.024658542
20	0xbbcdaa24	-0.006276386
21	0xbc8a0f10	-0.016852885
22	0xbd0305a8	-0.031987816
23	0x3c9e027a	0.01928829
24	0x3bb2d4c0	0.0054574907
25	0x3abac7c0	0.0014250204
26	0xbb037020	-0.0020055845
27	0xbcfc2d7e	-0.030783411
28	0xbc848e0c	-0.016181014
29	0xbc8f804a	-0.017517228
30	0xbc03f3f2	-0.008053767
31	0x3bc7b610	0.0060947016
32	0xbc140ac7	-0.009035773
33	0x3c9ac2fa	0.0188918
34	0x3c1e7f81	0.009673954
35	0x3cecf66f	0.028926102
36	0xbc717a04	-0.014738563
37	0x3c016933	0.007898617
38	0xbbb9a771	-0.0056657125
39	0xbb95829d	-0.0045626895
40	0x3c8858be	0.016643878
41	0x3c7038c2	0.01466197
42	0xbd0545f6	-0.032537423
43	0xbc770d81	-0.015078903
44	0xbca15696	-0.019694608
45	0x3cdb8762	0.026797954
46	0x3cda598f	0.026654033
47	0x3bca28fe	0.0061694374
48	0xbc788196	-0.015167614
49	0xbcfcb3dd	-0.030847484
50	0xbce23a83	-0.027615791
51	0xbcf6f148	-0.030144349
52	0x3c8ada42	0.016949777
53	0x398ff980	0.00027460977
54	0xbd0cdfbb	-0.034393054
55	0x3cf709b6	0.030155998
56	0xbbed2630	-0.0072372183
57	0xbc979caa	-0.01850732
58	0xbd0fe4f3	-0.035130452
59	0xbc205f83	-0.009788397
60	0x3c9a94ea	0.018869836
61	0xbd0e523c	-0.034746394
62	0xbc52c565	-0.012864445
63	0x3c494f6f	0.012287005
64	0xbcc61b3b	-0.024182906
65	0xbcbed8d8	-0.023296759
66	0x3c5d1032	0.013492631
67	0x3d05c2fb	0.03265665
68	0xbc2d8298	-0.010590218
69	0x3cef7b13	0.029233491
70	0x3c80feff	0.015746592
71	0xbcad48c0	-0.021152854
72	0x3b99a4d8	0.0046888404
73	0xbc89ce3a	-0.01682197
74	0x3b613791	0.0034365396
75	0x3b99ca51	0.0046933074
76	0x3cd54d8f	0.02603796
77	0xbb85c436	-0.004082228
78	0xba3ddea5	-0.00072429545
79	0x3c8365ef	0.016039817
80	0x3a2dbbc7	0.0006627407
81	0x3ceb98f0	0.02875945
82	0xbc3949ea	-0.011309126
83	0x3c977c6a	0.018491942
84	0xbc9a138a	-0.018808145
85	0xbbb3ed40	-0.005490929
86	0xbc709d46	-0.014685934
87	0xbc91e843	-0.017810946
88	0xbc10aaa3	-0.008829745
89	0xbc9e9480	-0.01935792
90	0x3c8ba7d3	0.017047798
91	0xbd028e76	-0.031874143
92	0xbcffff2a	-0.031249601
93	0x3ca79652	0.02045742
94	0x3c206990	0.009790793
95	0xbc06db5c	-0.00823101
96	0xbbf15d22	-0.0073658386
97	0x3c943f62	0.01809663
98	0xbc0028b5	-0.007822205
99	0xbd28c4e7	-0.041203406
100	0xbd1514fe	-0.036396973
101	0xbcf748a9	-0.030186014
102	0xbcd22bfd	-0.02565574
103	0xbd2a07c9	-0.04151133
104	0xbc9c7e45	-0.019103179
105	0xbc0c8d1d	-0.008578566
106	0x3b414484	0.0029490301
107	0x3cae8919	0.021305608
108	0x3cb6ac91	0.022299083
109	0x3cf77b77	0.03021024
110	0x3b987491	0.0046525677
111	0x3ad90e60	0.001656007
112	0xbd110c8c	-0.035412356
113	0x3d0ffe4e	0.035154633
114	0xbcbf8dac	-0.023382984
115	0xbcc9cad5	-0.02463285
116	0xb9c62f38	-0.00037800684
117	0x3c7dac7c	0.015483018
118	0xbccbd8be	-0.024883624
119	0x3c74a35b	0.014931525
120	0xbbc7d103	-0.006097914
121	0x3c79ca40	0.015245974
122	0xbb8a97a3	-0.0042295023
123	0xbc50f679	-0.012754076
124	0x3cae1d31	0.021254154
125	0x3a36cc12	0.0006973158
126	0xbc58bb59	-0.013228261
127	0x3b7e38d3	0.0038791194
128	0x3c4f3d30	0.012648866
129	0x3b97e760	0.0046357363
130	0x3c6acf58	0.014331661
131	0x3cac4b71	0.021032067
132	0x3ab22083	0.0013590012
133	0xbcbf11c7	-0.023323907
134	0xbc930f4a	-0.017951626
135	0x3b449efc	0.0030001989
136	0xbd10de7c	-0.035368428
137	0x3cbdb5ca	0.023157973
138	0x3c3c1104	0.011478666
139	0xbb6ab1d7	-0.0035811567
140	0xbc4230e6	-0.011852479
141	0xbb6f8600	-0.0036548376
142	0x3cbbfa86	0.022946607
143	0x3c88e234	0.016709425
144	0xbccdab87	-0.025106205
145	0xbcd5d030	-0.026100248
146	0xbc7827c3	-0.015146199
147	0x3bef087f	0.007294714
148	0xbd332238	-0.043733805
149	0xbd46436c	-0.048404142
150	0x3c1e7d32	0.009673404
151	0x3c7192fe	0.014744518
152	0x3c42f8a6	0.011900103
153	0x3d068fce	0.032851987
154	0x3c8da9fd	0.01729297
155	0x3b06521f	0.0020495725
156	0x3cd6030a	0.026124496
157	0x3d81077f	0.06300258
158	0x3a85180d	0.0010154262
159	0x3c8fec82	0.01756883
160	0x3d0f50b5	0.034989078
161	0x3ccf62d4	0.02531568
162	0x3c89fc72	0.016844008
163	0xbd179e91	-0.037016455
164	0x3b7343cd	0.003711927
165	0x3c68dbee	0.014212592
166	0x3cd24628	0.025668219
167	0x3cc00fac	0.023444973
168	0x3cdefe8e	0.02722099
169	0xbcd70e1e	-0.026251849
170	0x3b4f13d2	0.0031597507
171	0xbd0bf838	-0.034172267
172	0x3cb8d5aa	0.02256282
173	0xbb19f9a3	-0.0023494742
174	0xbb499cbd	-0.003076359
175	0xbd2bc077	-0.041931596
176	0xbd46ff8c	-0.048583552
177	0xbd0b1d00	-0.033963203
178	0xbca974c5	-0.020685563
179	0xbce738be	-0.028225299
180	0x3d139e3f	0.036039587
181	0x3ce341ed	0.027741397
182	0x3d0c9460	0.03432119
183	0x3d8becfe	0.06832312
184	0x3d8098b9	0.062791295
185	0x3d18bbf4	0.03728862
186	0x3cc0bd87	0.023527874
187	0x3d241278	0.040056676
188	0x3b233d5d	0.0024908402
189	0xbcb27c15	-0.021787683
190	0x3cb626d5	0.022235313
191	0xbb928129	-0.0044709635
192	0xbd0f0fa2	-0.034927018
193	0xbce72165	-0.028214166
194	0x3cb034f8	0.021509632
195	0x3d0e45a3	0.03473438
196	0xbbc81b9a	-0.006106806
197	0x3c772921	0.0150854895
198	0xbcd2adce	-0.025717642
199	0x3b687676	0.0035471
200	0xbc37d39b	-0.011219884
201	0x3c09fbb7	0.00842183
202	0xbcb9f557	-0.022699995
203	0xba9fcfef	-0.0012192706
204	0x3a961608	0.0011450658
205	0xbc620454	-0.013794977
206	0xbccb4a81	-0.0248158
207	0xbc1676f3	-0.009183633
208	0x3cdaae04	0.026694305
209	0x3c6cc486	0.014451152
210	0x3bdef6eb	0.0068043373
211	0x3cab1d1f	0.02088791
212	0x3cb29d5e	0.021803554
213	0x3cf66ab6	0.03008018
214	0x3d934282	0.0719042
215	0x3d78903c	0.060684428
216	0x3d13102f	0.035904106
217	0x3c752126	0.0149615165
218	0xbcc72b29	-0.024312573
219	0xbcf09297	-0.029366774
220	0x3b4c79d3	0.0031200543
221	0xbcb61f1d	-0.022231633
222	0xbcc62533	-0.02418766
223	0x3ba192aa	0.004930814
224	0x3c0a5481	0.008442999
225	0x3d05bd04	0.032650962
226	0xbc2a5323	-0.010395798
227	0xbc8cc678	-0.017184481
228	0xbc937567	-0.018000318
229	0xbd2ef196	-0.042710863
230	0x3ca144b6	0.019686084
231	0xbd0252ee	-0.03181737
232	0xbcae470b	-0.02127411
233	0xbcf5041e	-0.02990919
234	0x3b9576ea	0.004561295
235	0xbb528a93	-0.0032126054
236	0x3b5c7a7c	0.0033642342
237	0x3d34a1a5	0.04409947
238	0x3d65d13d	0.05610775
239	0x3cbfbdc7	0.023405923
240	0x3d2b0ffc	0.04176329
241	0xba239c2b	-0.00062412274
242	0x3d03e870	0.03220409
243	0x3d9f43d9	0.07776613
244	0x3cf53c15	0.029935876
245	0x3d2d5f8d	0.042327452
246	0x3c8d49f0	0.01724717
247	0x3d05487d	0.032539833
248	0xbcd15081	-0.025551083
249	0x3c99fa4c	0.018796109
250	0x3ca69b81	0.020337822
251	0x3cdf1176	0.027230006
252	0x3d09523a	0.033525683
253	0x3c96c320	0.01840359
254	0x3cde3503	0.027124887
255	0xbc784d5f	-0.015155165

bias f4 [10]
0	0xbcd9e997	-0.026600642
1	0x3dc00880	0.09376621
2	0xbd45ec41	-0.048321012
3	0xbd521987	-0.051293876
4	0x3d1f7535	0.038930137
5	0x3d81b4d2	0.06333317
6	0xbbc7a11f	-0.006092205
7	0x3d5c4ed9	0.053786132
8	0xbd87ade7	-0.06624966
9	0x3c7fae76	0.01560556
